…
botsort.yaml, save_dir=/app/output/train
yolov8n  | 2024-11-20T22:31:01.437381290Z Downloading https://ultralytics.com/assets/Arial.ttf to '/root/.config/Ultralytics/Arial.ttf'...
100%|â–ˆâ–ˆâ–ˆâ–ˆâ–ˆâ–ˆâ–ˆâ–ˆâ–ˆâ–ˆ| 755k/755k [00:00<00:00, 3.76MB/s]
yolov8n  | 2024-11-20T22:31:02.775657247Z Overriding model.yaml nc=80 with nc=3
yolov8n  | 2024-11-20T22:31:02.775695076Z
yolov8n  | 2024-11-20T22:31:02.775700204Z                    from  n    params  module                                       arguments
yolov8n  | 2024-11-20T22:31:02.776684814Z   0                  -1  1       464  ultralytics.nn.modules.conv.Conv             [3, 16, 3, 2]
yolov8n  | 2024-11-20T22:31:02.777298123Z   1                  -1  1      4672  ultralytics.nn.modules.conv.Conv             [16, 32, 3, 2]
yolov8n  | 2024-11-20T22:31:02.779272821Z   2                  -1  1      7360  ultralytics.nn.modules.block.C2f             [32, 32, 1, True]
yolov8n  | 2024-11-20T22:31:02.779954190Z   3                  -1  1     18560  ultralytics.nn.modules.conv.Conv             [32, 64, 3, 2]
yolov8n  | 2024-11-20T22:31:02.782709481Z   4                  -1  2     49664  ultralytics.nn.modules.block.C2f             [64, 64, 2, True]
yolov8n  | 2024-11-20T22:31:02.783312154Z   5                  -1  1     73984  ultralytics.nn.modules.conv.Conv             [64, 128, 3, 2]
yolov8n  | 2024-11-20T22:31:02.785877842Z   6                  -1  2    197632  ultralytics.nn.modules.block.C2f             [128, 128, 2, True]
yolov8n  | 2024-11-20T22:31:02.787941405Z   7                  -1  1    295424  ultralytics.nn.modules.conv.Conv             [128, 256, 3, 2]
yolov8n  | 2024-11-20T22:31:02.791769276Z   8                  -1  1    460288  ultralytics.nn.modules.block.C2f             [256, 256, 1, True]
yolov8n  | 2024-11-20T22:31:02.793350316Z   9                  -1  1    164608  ultralytics.nn.modules.block.SPPF            [256, 256, 5]
yolov8n  | 2024-11-20T22:31:02.793500627Z  10                  -1  1         0  torch.nn.modules.upsampling.Upsample         [None, 2, 'nearest']
yolov8n  | 2024-11-20T22:31:02.793624302Z  11             [-1, 6]  1         0  ultralytics.nn.modules.conv.Concat           [1]
yolov8n  | 2024-11-20T22:31:02.796537083Z  12                  -1  1    148224  ultralytics.nn.modules.block.C2f             [384, 128, 1]
yolov8n  | 2024-11-20T22:31:02.796654607Z  13                  -1  1         0  torch.nn.modules.upsampling.Upsample         [None, 2, 'nearest']
yolov8n  | 2024-11-20T22:31:02.796740554Z  14             [-1, 4]  1         0  ultralytics.nn.modules.conv.Concat           [1]
yolov8n  | 2024-11-20T22:31:02.798081364Z  15                  -1  1     37248  ultralytics.nn.modules.block.C2f             [192, 64, 1]
yolov8n  | 2024-11-20T22:31:02.798562482Z  16                  -1  1     36992  ultralytics.nn.modules.conv.Conv             [64, 64, 3, 2]
yolov8n  | 2024-11-20T22:31:02.798778516Z  17            [-1, 12]  1         0  ultralytics.nn.modules.conv.Concat           [1]
yolov8n  | 2024-11-20T22:31:02.801173434Z  18                  -1  1    123648  ultralytics.nn.modules.block.C2f             [192, 128, 1]
yolov8n  | 2024-11-20T22:31:02.802399631Z  19                  -1  1    147712  ultralytics.nn.modules.conv.Conv             [128, 128, 3, 2]
yolov8n  | 2024-11-20T22:31:02.802418298Z  20             [-1, 9]  1         0  ultralytics.nn.modules.conv.Concat           [1]
yolov8n  | 2024-11-20T22:31:02.806967750Z  21                  -1  1    493056  ultralytics.nn.modules.block.C2f             [384, 256, 1]
yolov8n  | 2024-11-20T22:31:02.815398289Z  22        [15, 18, 21]  1    751897  ultralytics.nn.modules.head.Detect           [3, [64, 128, 256]]
yolov8n  | 2024-11-20T22:31:02.892527837Z Model summary: 225 layers, 3,011,433 parameters, 3,011,417 gradients, 8.2 GFLOPs
yolov8n  | 2024-11-20T22:31:02.892551326Z
yolov8n  | 2024-11-20T22:31:02.913024907Z Transferred 319/355 items from pretrained weights
yolov8n  | 2024-11-20T22:31:04.229179449Z TensorBoard: Start with 'tensorboard --logdir /app/output/train', view at http://localhost:6006/
…
